pigstrong/parameter/b1.npy (npy, 1328 bytes, 1 tensors)

array f4 [300]
000000 73 e3 32 bd f2 1f 92 3d 9f 5d 7b bd 8d ca 62 be
       -0.043673944 0.07134999 -0.06136858 -0.2214758
000010 6c b0 56 bd be b2 5c 3d 61 f4 9b 3d 5a 8d b7 bd
       -0.052414343 0.0538814 0.07614971 -0.089625075
000020 27 4b 9f be ce e8 d7 bc db 4f 55 3c 4a c2 91 bd
       -0.31112024 -0.026356127 0.013019527 -0.07117136
000030 82 8d 6d bd b3 f5 af bd 97 ef 9d bd bf a6 3f bd
       -0.05799628 -0.08591785 -0.07711714 -0.04678988
000040 da 19 d6 3d 6c 19 3f bd de 04 18 be cb a5 30 bd
       0.104541495 -0.046655104 -0.14845607 -0.043126862
000050 cd 53 08 bd a7 8b 84 bc b8 81 0d 3e cb c9 1a bd
       -0.033283044 -0.016179873 0.13819015 -0.0377901
000060 8e 33 15 be cb 67 1b bc 30 cf ae 3d ce a9 bb bd
       -0.14570448 -0.009485195 0.08535612 -0.09163247
000070 4d a8 a1 bd ba b9 27 be dc f5 d3 bd b1 f9 54 3d
       -0.07893429 -0.16379443 -0.10349628 0.051995937
000080 1f 37 96 3c a3 59 c5 bd ef 20 21 3d b2 82 12 3d
       0.01833683 -0.096362375 0.03933805 0.035769172
000090 b2 7c 19 bd 07 9d 35 bd 61 66 7e bd 5e bf 29 3d
       -0.037472434 -0.044339206 -0.062109355 0.041442268
0000a0 fd df 2a bb ec 97 cc bc cf e5 10 be 52 bd cb bd
       -0.0026073449 -0.024974786 -0.14150165 -0.09948219
0000b0 a0 3f 99 bd 5d 95 84 bd 1f 4a 8c bd cd 8c f9 bd
       -0.07482839 -0.06473801 -0.06850075 -0.12185059
0000c0 d2 eb db bc 5a 47 d4 bd 95 05 2b be b1 5d 93 bd
       -0.026845846 -0.10365172 -0.16701348 -0.071956046
0000d0 05 95 cb bb 5f bb f2 bd e0 43 49 bd 87 9a 92 bd
       -0.006212833 -0.118521444 -0.049136996 -0.0715838
0000e0 f8 a8 21 3d b3 b0 1a bd 3c f3 5e bd ac 4f 75 3c
       0.03946778 -0.03776617 -0.054431185 0.014972609
0000f0 da 34 26 bd a4 6e cf bd 81 fa 11 bd ae e3 9d bc
       -0.040577747 -0.10128525 -0.03563929 -0.019273605
000100 e5 6d 5b bd 83 5b fe bc ff d4 c0 bd bf f9 98 3c
       -0.0535716 -0.031049496 -0.09415626 0.018673776
000110 71 11 20 be 09 69 a8 bd cc 4a a4 bd b9 9b 28 bd
       -0.15631653 -0.08223159 -0.08022079 -0.041164134
000120 4e a2 83 bd 93 21 bc bb 69 52 87 ba b7 98 e5 bb
       -0.064274415 -0.005741307 -0.0010324243 -0.0070067304
000130 0d 05 b9 3c 2e 52 ef bd 43 4d de 3a 38 49 1a 3e
       0.022585416 -0.116855964 0.0016960282 0.15066993
000140 75 5d 3c be 61 8d 0b 3d 78 58 5f 3b 13 7d 33 bc
       -0.18395026 0.034070376 0.003407983 -0.010955113
000150 3d ad ab bc 09 32 07 be 62 f2 4c 3c 9e 17 64 bd
       -0.02095663 -0.1320268 0.01250896 -0.055686586
000160 6a 4d e6 bc 60 32 3b 3d 16 85 6f 3c 6d 80 5a bd
       -0.028113086 0.04570234 0.0146191325 -0.053345133
000170 88 02 26 3c dd 22 bb 3d 93 b0 5c be 1f 3a 72 bd
       0.010132439 0.09137509 -0.21551733 -0.05913746
000180 cf 8c 93 be e6 22 1b be 2a 60 f6 bd 8e 92 1e bd
       -0.28818366 -0.15150031 -0.120300606 -0.038713984
000190 68 b8 c4 3d 95 ba 31 bc a9 b9 2d bd 8a 37 10 bc
       0.09605485 -0.010847707 -0.042413387 -0.008802304
0001a0 82 ce 4e 3c e4 05 3e 3b d6 a8 ba 3c 9a 24 7d be
       0.0126224775 0.002899521 0.022785585 -0.24720994
0001b0 a8 98 99 bd dc cd 4b bd 5b 1e be bd 64 d3 07 3e
       -0.0749982 -0.04975687 -0.092831336 0.13264233
0001c0 c9 e0 1b be 8e 18 04 3e a6 29 16 3a cd 7d 05 3c
       -0.15222467 0.12899992 0.0005728252 0.008147669
0001d0 50 ba 94 bd e4 6c e9 3d ce 15 f2 3d 47 ba 0b bc
       -0.07262099 0.11397722 0.11820565 -0.008528299
0001e0 22 da 5b 3c 3b 13 04 be 47 2b 0b 3d 62 6d 30 bd
       0.013418706 -0.12897961 0.03397682 -0.043073066
0001f0 57 e9 db 3c 0a bd e6 bc 71 00 1e 3e b5 8d 9d 3d
       0.026844664 -0.028166313 0.15429856 0.07693044
000200 1e 1d 4a bd 21 fb 1f 3e f1 1b 14 3e f1 e4 f9 bb
       -0.049344175 0.15623142 0.14463784 -0.007626169
000210 ac 3c cf bd e6 4b 8c bc be 29 79 bd 1b 3f 2d 3e
       -0.10118994 -0.017126035 -0.060830824 0.16918604
000220 c6 cd 1c be 2e 55 89 bd e5 40 db bd 1c 81 c5 3c
       -0.15312871 -0.067057 -0.10705737 0.024109416
000230 df 26 a4 bd 10 d5 10 be e0 7a 9c bc bb 25 2f bd
       -0.080152266 -0.14143777 -0.01910156 -0.042760592
000240 34 24 01 bd fb fb da bd b9 dc b6 bd 4d f1 b7 bb
       -0.031528667 -0.10692593 -0.08928818 -0.005613482
000250 50 6e 35 be ac 9b 10 be d8 6e 04 3d 44 31 f3 3d
       -0.17717862 -0.14121884 0.03233227 0.11874631
000260 8d ae 67 3d ab c8 f7 bd c4 ef 5e 3d 52 7c dd bd
       0.05656295 -0.12098821 0.054427877 -0.10814728
000270 64 58 09 3e 7c 1c 31 bd d5 de ac bd b6 5f 95 bd
       0.13412625 -0.043240055 -0.08440939 -0.07293646
000280 0d 62 a5 be 47 2d aa bc b3 fd 06 bd 33 58 e3 3b
       -0.3230137 -0.020773543 -0.03295679 0.0069380044
000290 ab a1 54 be 23 98 d3 bd 13 51 8d bd 49 f2 87 bd
       -0.20764796 -0.10331752 -0.06900229 -0.06638009
0002a0 2b 33 06 be 3e ce 23 bd 6a 4f c7 bc 51 b6 b6 bd
       -0.13105457 -0.03999161 -0.02432986 -0.08921493
0002b0 6d a2 c4 bc d7 27 32 39 d8 96 22 bd fb 8c b5 bd
       -0.024003232 0.00016990244 -0.039694637 -0.088647805
0002c0 24 36 4c be d9 40 04 be 0a a3 25 be 6c f0 8c 3d
       -0.19942528 -0.12915362 -0.16175476 0.06881794
0002d0 b4 ec 79 be 6d 8d 84 3d e4 d6 15 be 50 9d 2f bd
       -0.24406701 0.06472287 -0.14632756 -0.042874634
0002e0 22 56 98 bd 31 96 b8 3c 7b e4 e3 bd 55 4b c5 3c
       -0.074383035 0.022532554 -0.111275636 0.024083773
0002f0 0d ab 10 be 05 cf 1f 3d 17 a2 b6 bd 74 5b 75 3d
       -0.1412775 0.03901579 -0.08917635 0.05990167
000300 4f bc 1a be 9e bc 18 bd a8 32 5d be 04 d0 c1 bc
       -0.15110897 -0.037289254 -0.21601355 -0.02365876
000310 e2 ba ce 3d 81 f1 f7 bd dc 68 58 3d cc 6f 5b 3e
       0.10094239 -0.1210661 0.052834377 0.21429366
000320 f1 bf 32 be 5e 7f 45 3e 56 34 18 be 45 e1 46 3b
       -0.17456032 0.19286868 -0.14863715 0.0030346673
000330 1c 4f 4a ba 49 b1 83 3d 31 7b 5e bd 57 06 e1 3c
       -0.00077174767 0.06430299 -0.054316703 0.027468843
000340 16 f8 e9 3c 9c 54 16 bd 35 14 67 3c 50 35 80 bd
       0.02856068 -0.036701784 0.014103939 -0.062601686
000350 5f 58 6c 3e 62 e9 06 3e ed 53 f3 3b 3d 6c 16 be
       0.23080586 0.13174966 0.007425776 -0.14689727
000360 00 04 95 3d d9 d1 07 be d3 a1 c1 3c 25 ce d9 bd
       0.072761536 -0.13263644 0.023636734 -0.10635022
000370 4d ef 3a bd e5 9c 1d be 7c 4e 1f bd bc fb 99 bd
       -0.04563837 -0.15391882 -0.038893208 -0.07518718
000380 5c 84 8e be e4 a3 4b 3d 08 6d 6d bc a1 96 41 bc
       -0.27835357 0.049716845 -0.014491327 -0.011815698
000390 16 a8 10 be bf 77 68 bd 3a ec e2 bd a9 8f 02 bd
       -0.1412662 -0.056754824 -0.11080213 -0.031875286
0003a0 1e 64 fd bd 15 95 c5 bc 02 a0 fc bd 54 02 45 bc
       -0.123726115 -0.02411894 -0.123352066 -0.012024481
0003b0 5f a8 21 bd 3d 83 7a bd 58 aa 83 bd c0 82 b7 bd
       -0.03946721 -0.061160315 -0.06428975 -0.089604855
0003c0 29 6c e2 bd 7c 37 79 bd 8b 14 5a bd c4 5a a9 bd
       -0.11055786 -0.06084393 -0.053242248 -0.08269265
0003d0 33 f1 82 bd 35 c7 c9 bd 08 0e aa be 97 74 30 3d
       -0.06393661 -0.09852449 -0.3321383 0.04307994
0003e0 a1 dc 8c 3d 6d 77 fc bd be 71 09 be 8f 48 10 bd
       0.06878019 -0.12327466 -0.13422295 -0.035225447
0003f0 45 1c 46 3e 10 7e 4b bd 4f f1 0c be 67 2f 16 3e
       0.19346721 -0.04968077 -0.13763927 0.1466652
