pigstrong/parameter/w1.npy (npy, 940928 bytes, 1 tensors)

array f4 [784, 300]
0	0x3c6c03e8	0.014405228
1	0x3cfa72f3	0.03057239
2	0x3d31d843	0.043419134
3	0x3deb9b83	0.11504271
4	0x3ca7b465	0.020471761
5	0xbd00bb30	-0.031428516
6	0xbd798acf	-0.060923394
7	0x3d7b1a88	0.0613046
8	0xbd89443b	-0.06702467
9	0xbd301723	-0.042990815
10	0xbc932789	-0.017963188
11	0xbd2e2f81	-0.042525772
12	0xbdce63fd	-0.10077665
13	0xbda23bf9	-0.07921595
14	0xbde12430	-0.1099323
15	0x3de2b500	0.11069679
16	0xbdf8b3d5	-0.12143675
17	0x3ddf11bf	0.10892057
18	0x3d94adbb	0.07259699
19	0xbde0742b	-0.10959657
20	0xbe436b77	-0.19083963
21	0x3e3515bf	0.17684077
22	0xbdf9da90	-0.121998906
23	0x3d6ed780	0.058310986
24	0xbd86a7d3	-0.06574979
25	0x3dc741cb	0.09729346
26	0x3c34080b	0.010988246
27	0x3e3df880	0.18551826
28	0xbd624d1f	-0.05524933
29	0xbc247dfd	-0.010039804
30	0x3d1fbbf5	0.03899761
31	0xbda28acd	-0.079366304
32	0x3d4b3e66	0.049620055
33	0xbd673028	-0.05644241
34	0xbe1066de	-0.1410174
35	0x3cc92857	0.024555368
36	0x3ca862bb	0.02055489
37	0x3bdb731a	0.006697071
38	0xbce33d42	-0.027739171
39	0x3d6bae28	0.057539135
40	0xbb76b140	-0.003764227
41	0xbdb514d9	-0.08841867
42	0x3d611c05	0.054958362
43	0xbbc46ed1	-0.0059946557
44	0xbc9e379c	-0.019313626
45	0x3df879e8	0.12132627
46	0xbdc98b01	-0.09840966
47	0x3ca28327	0.019837929
48	0xbd9a597e	-0.075366005
49	0x39766930	0.00023499574
50	0xbd05007f	-0.032471176
51	0x3bb4ccbf	0.0055175717
52	0xbc8b0a00	-0.016972542
53	0x3e0f0fa5	0.13970812
54	0x3da0b1c7	0.07846408
55	0x3c820333	0.015870666
56	0x3e08ac34	0.1334694
57	0x3dba58f5	0.090989985
58	0x3cf3be6a	0.029753882
59	0x3ceb5d72	0.028731082
60	0xbd5b72fd	-0.05357646
61	0xbd6937f0	-0.05693811
62	0xbe078606	-0.1323472
63	0x3db061ea	0.086124256
64	0xbc5fef50	-0.013667896
65	0x3d9b2671	0.075756915
66	0x3c5b9080	0.013401151
67	0x3cce9b37	0.025220497
68	0xbc9989ad	-0.018742407
69	0xbdafba3c	-0.08580443
70	0x3d423942	0.047417887
71	0xbc89ea6e	-0.016835418
72	0xbda2bb4c	-0.0794588
73	0x3db0270e	0.08601199
74	0xbd913b27	-0.070913605
75	0xbd98c20f	-0.07458889
76	0x3dacf8b9	0.084458776
77	0x3e4c301b	0.19940226
78	0x3dfa6320	0.12225938
79	0x3d92b319	0.071630664
80	0xbbdde7b3	-0.0067720055
81	0x3db60ac9	0.08888776
82	0x3d8af5cc	0.06785163
83	0x3bd4a802	0.0064897547
84	0x3e03141f	0.12800644
85	0x3b9b1676	0.004732902
86	0x3dc7e9c2	0.09761383
87	0x3df7e397	0.12103956
88	0x3d7fdb7b	0.062465172
89	0x3c2f89c3	0.010713997
90	0xbdf72c22	-0.120689645
91	0xbcff5b07	-0.031171335
92	0xbd621a20	-0.055200696
93	0xbde03c03	-0.10948946
94	0xbdb10b0f	-0.086446874
95	0x3d21d22b	0.039507072
96	0x3e0c10a1	0.13678218
97	0xbdb9235b	-0.09039947
98	0x3dcd9e8b	0.10040005
99	0xbe18e717	-0.14931904
100	0xbca71f65	-0.020400712
101	0x3d68080b	0.056648295
102	0x3d77b902	0.06047917
103	0xbbdcce07	-0.0067384276
104	0x3cfbb122	0.030724112
105	0xbd93de40	-0.07220125
106	0xbd72902a	-0.059219517
107	0xbde142a7	-0.10999041
108	0x3c8520bb	0.016250959
109	0x3cc93571	0.024561616
110	0x3c2699ca	0.010168502
111	0x3e1128a1	0.14175655
112	0xbdfea78d	-0.124343015
113	0x3ce447a5	0.027866194
114	0xbe210669	-0.15725102
115	0xbe198da0	-0.14995432
116	0x3d3dda46	0.04635074
117	0xbcdd15cd	-0.026987934
118	0x3d8f3935	0.06993333
119	0xbe28eb1a	-0.16495934
120	0x3d25d17f	0.040482994
121	0x3e092a14	0.13394958
122	0x3d9e2ff2	0.077239886
123	0xbe08b6e8	-0.13351023
124	0x3dac9aba	0.08427949
125	0x3e021d46	0.1270648
126	0xbd807bfb	-0.062736474
127	0x3e403c05	0.18772896
128	0x3d8e9093	0.06961169
129	0x3c3235fe	0.010877131
130	0xbca60f25	-0.020270893
131	0x3de15eef	0.11004435
132	0xbd9a11a7	-0.07522898
133	0x3d6943c5	0.056949396
134	0xbd2ad634	-0.041708186
135	0xbdcb7e35	-0.099361815
136	0x3d8631b7	0.06552451
137	0xbe4751e5	-0.19464834
138	0xbde94e05	-0.11391834
139	0x3ba582bc	0.005050985
140	0x3c7108ca	0.014711568
141	0xbe277ea7	-0.16356908
142	0xbd9fd3ef	-0.07804095
143	0x3e333a67	0.17502747
144	0x3caea189	0.02131726
145	0x3d892bd3	0.06697812
146	0xbe05240c	-0.13002032
147	0x3d9ba8cb	0.07600554
148	0x3db0c183	0.086306594
149	0x3e36ca8b	0.17850702
150	0xbd535e00	-0.051603317
151	0x3b0ec00b	0.0021781947
152	0xbe47f63d	-0.19527526
153	0x3ce0e987	0.027455105
154	0x3d647d2b	0.055783432
155	0xbe1f053e	-0.15529343
156	0x3c5ec9d3	0.013597923
157	0xbd2b4347	-0.041812208
158	0xbd82eaf7	-0.06392472
159	0xbd219b9a	-0.039455034
160	0xbc9781a8	-0.018494442
161	0xbe2a7619	-0.16646613
162	0x3d9333e7	0.07187634
163	0xbc730aa5	-0.014834081
164	0xbccf8453	-0.025331652
165	0x3defdf10	0.11712468
166	0xbdbfe4eb	-0.093698345
167	0xbb90739e	-0.004408314
168	0x3d81d103	0.06338694
169	0x3e27103c	0.16314787
170	0xbdbbd4e9	-0.09171469
171	0xbd3c73d3	-0.046008896
172	0x3a69fb83	0.0008925723
173	0x3de46a0b	0.111530386
174	0xbdae1e72	-0.08501901
175	0x3d3bf57b	0.045888405
176	0xbd4c9793	-0.04994924
177	0x3df37775	0.11888019
178	0x3d1286cf	0.035773095
179	0x3d0c3e2b	0.034238975
180	0x3dc66c1d	0.0968859
181	0x3c893b5f	0.016751943
182	0x3d50376b	0.0508341
183	0x3ddcd7e7	0.107833676
184	0x3cba760e	0.022761371
185	0xbd5c15ff	-0.053731915
186	0x3dde2730	0.10847318
187	0xbd4447af	-0.047919925
188	0xbdb142b7	-0.08655303
189	0xbe0ac977	-0.13553415
190	0xbe1c2155	-0.1524709
191	0x3d03eb73	0.032206964
192	0x3d16e51c	0.03683959
193	0x3c79af92	0.015239613
194	0x3cec954d	0.028879786
195	0x3d158ca6	0.036511086
196	0x3e1dcf04	0.15411001
197	0x3bfba04b	0.0076790205
198	0xbdc4c030	-0.09606969
199	0xbd3a457a	-0.045476414
200	0x3cb4af87	0.022056354
201	0x3c211787	0.0098322695
202	0x3d20277f	0.039100166
203	0x3d8b9473	0.06815424
204	0xbd545ca3	-0.051846158
205	0xbd81a741	-0.06330729
206	0x3c9c6792	0.019092355
207	0xbe41c733	-0.18923645
208	0xbc836293	-0.016038215
209	0x3dae7e86	0.08520226
210	0xbc917003	-0.017753607
211	0xbe1ed7b8	-0.15511978
212	0x3e0ffd8c	0.14061564
213	0xbe061c8b	-0.13096826
214	0x3d8e91b3	0.06961384
215	0x3d9609f1	0.07326115
216	0x3e00ad3b	0.12566082
217	0x3c9d0f6b	0.01917239
218	0x3e17f2a9	0.14838661
219	0xbd846f5e	-0.06466554
220	0x3daeb8d7	0.08531349
221	0xbdeab163	-0.11459615
222	0x3c4357d3	0.011922794
223	0x3d8ccdca	0.06875189
224	0x3e4a4d4f	0.19756053
225	0x3e02df5e	0.1278052
226	0xbdcfbf43	-0.10143902
227	0x3dce2727	0.100660615
228	0xbb3da26f	-0.002893593
229	0x3d1ca53a	0.03824351
230	0xbc96f04b	-0.018425127
231	0xbd017959	-0.031609867
232	0xbcf67263	-0.03008384
233	0xbe4230ea	-0.18963972
234	0xbd83731f	-0.06418442
235	0x3e1133ba	0.14179888
236	0x3d8e2617	0.06940859
237	0x3e070e29	0.13188995
238	0xbe152123	-0.14563422
239	0xbe1c6e6a	-0.15276495
240	0x3e441560	0.19148779
241	0xbd2eeac5	-0.042704362
242	0x3c2bd166	0.010486936
243	0xbbabde17	-0.005244981
244	0x3d89b927	0.06724768
245	0xbde39f35	-0.11114351
246	0xbe2d621b	-0.16931956
247	0xbc94d513	-0.018168008
248	0x3e37b27e	0.17939183
249	0xbd0d3cf3	-0.034481954
250	0xbdab5642	-0.08366062
251	0x3c859e6b	0.016310891
252	0x3da28f66	0.07937507
253	0x3d5ca92f	0.053872284
254	0x3c862d1f	0.016378937
255	0xbdab9e75	-0.08379833
