pigstrong/parameter/w2.npy (npy, 12128 bytes, 1 tensors)

array f4 [300, 10]
000000 97 52 f7 bc 3a c2 a3 3d fa a5 69 bb f0 6d 16 be
       -0.03019075 0.0799603 -0.0035651908 -0.14690375
000010 64 3d bc 3d 14 76 8f 3d 9a 44 ca bd 25 16 b0 bd
       0.09191397 0.070049435 -0.09876366 -0.08597974
000020 c8 1d 11 3e db b4 9e 3d 1e a5 3c bc 89 bd 8b be
       0.14171517 0.07749339 -0.011513976 -0.2729304
000030 c9 1c 0e 3e 47 af 72 bd 42 a8 3c 3d 3d 68 d3 3d
       0.13878168 -0.05924919 0.0460589 0.10322616
000040 b1 4a a8 3e e7 2a e1 3e bc 1d 97 bb a5 b3 3c bf
       0.32869485 0.43978044 -0.004611699 -0.73711616
000050 b6 57 71 be f1 45 a3 bb 69 cd 3e be c1 e1 c7 3c
       -0.23568615 -0.004982703 -0.18633045 0.02439964
000060 42 f5 b5 3e fe 28 51 be 48 ca 0d 3e 4e 13 c5 3d
       0.3553868 -0.20425794 0.13846695 0.09622823
000070 8f 68 02 bf 22 55 c0 3e 04 4e 6a be ab 09 b3 3e
       -0.50940794 0.3756495 -0.22881323 0.34968314
000080 85 4e d6 bd 95 70 ef be e3 ca b5 3e 7c 24 aa be
       -0.10464195 -0.4676558 0.35506353 -0.3323096
000090 3d f2 92 be 5d b2 b2 3e e6 e4 6b 3e 01 91 80 3e
       -0.28700438 0.34901705 0.23036537 0.2511063
0000a0 bc 2d ce bd b9 f0 d4 3e 5f 25 68 3e 28 51 c0 be
       -0.10067317 0.41589907 0.22670506 -0.37561917
0000b0 74 81 de 3e a3 3d 07 bd 70 76 01 be 27 2c e6 3c
       0.4345814 -0.033017766 -0.12642837 0.028097225
0000c0 c5 7d 90 bd e7 07 0a be a6 4a 5b be 03 27 e1 be
       -0.07055239 -0.13479577 -0.21415195 -0.43975076
0000d0 50 c0 bd 3e 10 70 0b be 40 fe 01 bf 00 71 8c 3d
       0.37060785 -0.13616967 -0.5077858 0.068574905
0000e0 d1 c7 0e 3f 39 78 38 3e 4b 41 11 3e 18 0e bf bd
       0.55773646 0.18014611 0.14185064 -0.0932886
0000f0 49 37 b5 3e ac 0c da bc 56 a9 70 be 39 e3 64 be
       0.35393742 -0.02661737 -0.23502097 -0.22352304
000100 23 4d c4 be 80 9b d8 3e 64 1e 4e be 4c 01 ae 3e
       -0.383401 0.42306137 -0.2012878 0.33985364
000110 ca 4d c9 bd 73 94 61 bb 2e 39 d3 bd 5e 6a 94 3d
       -0.0982929 -0.0034420758 -0.103136405 0.072468504
000120 30 f5 cb 3d b9 4b af bd 21 c1 0f bd a6 f1 7c 3d
       0.09958875 -0.08559365 -0.03509629 0.06175389
000130 64 c3 cc bd df 54 29 3d 1e 36 3b 3e 05 6b 0e 3d
       -0.09998205 0.041340705 0.18282363 0.03477003
000140 d3 5d 34 3e 4f df ad be b1 d5 08 3e a9 3a 49 3e
       0.17613916 -0.33959433 0.13362767 0.19651283
000150 88 b8 26 bf 99 bb 2b 3e ea 8d 0a bd 0e 33 5c be
       -0.6512532 0.16770782 -0.033826746 -0.21503851
000160 be 9e 90 3e bc a5 ea 3d 26 e5 1b 3d 8c de 0f 3d
       0.2824611 0.114573926 0.03806033 0.035124347
000170 6d 2c 64 be ab 68 8c be 34 c4 dd 3e b6 1c 17 be
       -0.22282572 -0.27423605 0.43313754 -0.14757046
000180 12 af 7d be 92 e1 91 3e 0a b5 b6 be 3d 42 b4 3e
       -0.24773815 0.2849241 -0.35684997 0.35206786
000190 07 f3 41 be db d1 9b be b0 b3 4b be e3 e3 6d 3e
       -0.18940364 -0.30433545 -0.19892764 0.23231463
0001a0 80 b8 12 bd bb 86 d6 3e 5a 5d 1e bf aa a3 2c 3e
       -0.035820484 0.41899666 -0.61861193 0.16859308
0001b0 7d 89 08 3e 7f b9 91 3e 90 3b 83 be 5f df 86 be
       0.13333698 0.28461835 -0.2563138 -0.26342294
0001c0 64 16 28 3b ce 92 87 be d9 80 6e 3e a7 bd 89 3e
       0.0025648111 -0.2647919 0.23291339 0.26902506
0001d0 51 ac 3f 3e c1 7a 8d bd 0f 61 d3 3e 27 3c 7a be
       0.18718077 -0.06908179 0.41284987 -0.24437009
0001e0 96 48 f3 3e 92 aa d0 3e 72 66 d7 3d d5 6d c7 be
       0.47516316 0.40755135 0.10517587 -0.38950983
0001f0 d1 0a 46 be 2a a4 b2 bd 18 93 22 3c e0 ae 17 3e
       -0.19340064 -0.08722718 0.009922765 0.14812803
000200 c2 20 a2 be 74 48 45 be 77 35 96 3e af 03 38 be
       -0.31665617 -0.1926592 0.29337665 -0.17970155
000210 e6 19 75 3e 60 4b 64 be f3 7c 5e 3e 6a b8 70 be
       0.2393566 -0.22294378 0.21727352 -0.23507848
000220 15 f2 50 3e c0 59 ee be 27 91 5e 3e 9e 67 2b be
       0.20404847 -0.4655285 0.21735059 -0.16738746
000230 83 86 b3 bd 54 55 4e 3d 74 4d 7b 3d 26 4c 00 be
       -0.087658904 0.050374344 0.061353162 -0.12529048
000240 5b 00 da 3d 99 84 2f bc 54 a4 15 be 3a 2e 11 3e
       0.10644599 -0.010712766 -0.14613467 0.1417779
000250 0f 1d b7 3d 93 32 b9 3d a1 84 9a bb 7a 4b c6 bc
       0.08941089 0.090428494 -0.0047155176 -0.024205912
000260 f5 54 06 3d 95 b4 8d bc 17 c0 14 bd 3c 24 2b 3c
       0.032795865 -0.017298022 -0.036316004 0.010445651
000270 b9 e3 cc bc e9 ad 87 3c 21 5f 28 3c 36 ce 3c 3d
       -0.02501093 0.016562419 0.010276587 0.046095096
000280 4f 8d f3 bd af 7f 4c bd 61 ac 14 3e f6 3d 33 be
       -0.11892187 -0.049926456 0.14518882 -0.17504105
000290 83 0e cd be 43 4e bf 3e 4f c9 15 be 91 6d 04 3f
       -0.40050134 0.37364396 -0.14627574 0.51729685
0002a0 49 a8 9e bd 81 b5 0b bd 09 66 7e bd d4 41 fe bb
       -0.077469416 -0.034108642 -0.062109027 -0.007759312
0002b0 c1 6d a3 3d 0e 6d 7f bc 12 b9 c3 b8 32 62 8f 3b
       0.07979918 -0.0155899655 -9.3327966e-05 0.0043757195
0002c0 77 aa cc 3c fe ec 26 bc fe 1f 7b bd fb d5 7c 3d
       0.024983628 -0.010188339 -0.061309807 0.061727505
0002d0 9a b6 a3 be 83 1e 3c be 1a f5 e0 be dc 00 e8 3e
       -0.3197525 -0.18371014 -0.43936998 0.45313156
0002e0 7b 53 56 3e 1a 9d 3d be d8 90 a9 be 46 46 64 3e
       0.20930283 -0.1851696 -0.3311832 0.22292432
0002f0 63 6b fe bc ed 88 ac 3e 13 35 ff bd ca 2f 65 3d
       -0.031057065 0.33698216 -0.12461295 0.05595378
000300 00 5a ca bd 2a 6e 00 be 96 c5 6f 3e 00 81 76 bd
       -0.098804474 -0.12542024 0.23415217 -0.060181618
000310 e3 45 48 be 4a 55 93 3e 37 70 db be dc d4 9c 3e
       -0.1955791 0.28776008 -0.4285905 0.3063115
000320 c3 92 d6 39 e3 29 78 be 14 1c 03 3e 2f 93 87 3e
       0.00040926607 -0.24234729 0.1280368 0.2647948
000330 41 01 d9 be f1 10 30 bc 19 20 ab be 5d 5f 0d 3e
       -0.4238377 -0.010746227 -0.33422926 0.1380591
000340 a3 ad 97 3c af d4 c4 3e cf 8b 03 3f 39 96 68 bd
       0.018515414 0.38443515 0.51385206 -0.05678389
000350 eb 09 c3 bd 82 9e 47 3d 97 79 02 be 46 f0 b7 be
       -0.09523376 0.04873515 -0.12741695 -0.35925502
000360 bf 42 2c bd 7d a3 57 3e 6a 01 fa bd 1a fa 18 be
       -0.04205584 0.2105846 -0.12207301 -0.14939156
000370 12 23 0c 3e 38 07 b9 be 09 d6 87 be 1b 32 04 bf
       0.13685253 -0.3613832 -0.26530483 -0.51638955
000380 b2 31 84 bd c6 f3 f3 3e 29 83 02 3f 69 8d ac 3d
       -0.06454791 0.47646922 0.50981385 0.08425409
000390 bd cf 04 3e 15 2f 5e be 73 55 0a be 93 ec 13 3f
       0.12969871 -0.21697648 -0.13509159 0.5778286
0003a0 51 b4 c5 be 5a b0 79 be ea 08 01 3f 52 81 20 3e
       -0.38614133 -0.24383679 0.50404227 0.15674332
0003b0 94 40 d7 3e eb 62 3e be 7c d0 a7 be 29 0e c9 be
       0.42041457 -0.18592422 -0.32776248 -0.39268616
0003c0 fb 00 7a bd 59 8d 4d 3e 7f d9 89 3e 74 ff 0a be
       -0.06103609 0.20073451 0.2692375 -0.1357401
0003d0 6c fc 03 3f 88 d4 00 3e 27 ac 02 be e6 67 3d be
       0.5155704 0.12581074 -0.12760983 -0.18496665
0003e0 a9 39 f9 bc 52 8f 0f bf 9f bb ba be 84 c2 62 3e
       -0.030423002 -0.56078064 -0.3647127 0.22144514
0003f0 4b c9 ac 3e c3 4e 70 3d ca 82 e0 3c e0 40 b4 bd
       0.33747324 0.058668863 0.027406115 -0.088014364
